DentAIv3.onnx (onnx, 51617 bytes, 6 tensors)

sequential_4/dense_18/MatMul/ReadVariableOp:0 f4 [64, 28]
-0.14019382 -0.4048741 0.015834814 -0.17454125 0.3045839 -0.34127674 -0.22785607 0.07693447
-0.17495053 0.03435583 -0.10463641 -0.28519762 -0.31964812 -0.091287576 -0.027601125 -0.1945403
0.020024117 0.116508275 -0.2050643 -0.14143857 -0.024207631 0.2594156 -0.12793344 0.031965133
0.023568133 -0.15940961 -0.09404206 -0.12464942 -0.06477503 0.24278422 -0.22414233 0.21974376
0.15011048 0.09602967 -0.47590056 -0.16312782 -0.16171092 0.2738941 0.0315477 -0.17700581
-0.06940919 -0.42200044 0.36436984 -0.24004619 -0.031076044 -0.60452193 -0.33015248 -0.2554386
-0.30213913 0.040887635 -0.3409733 -0.10430944 -0.069270276 -0.25755328 -0.51121354 -0.29657546
-0.025600092 -0.11516023 -0.26775122 -0.29014575 -0.6405757 -0.25111717 -0.014085728 0.08389968
-0.3822202 -0.35533574 0.23685206 0.15480615 0.0239338 -0.15857826 -0.36254323 0.08012169
0.2522515 -0.3258442 -0.73475707 -0.43692824 -0.3791073 -0.36852008 -0.8661312 -0.010149536
-0.32804972 0.33387968 -0.46252766 0.3133179 -0.07786866 -0.17902003 0.27848133 -0.24410433
0.26546395 0.26249036 -0.17765358 -0.19802104 -0.057044674 0.0951882 -0.026490277 0.03949768
0.18261012 -0.04256858 -0.083568476 0.11546563 0.15641482 -0.060347736 -0.19908156 -0.29072064
-0.31684476 -0.3312672 -0.18633066 0.24756092 -0.066110276 0.16340312 0.0038659992 -0.11340835
0.12253133 0.023845645 0.10227258 -0.32819 0.07546335 0.03873005 -0.05749622 -0.08196737
-0.16541384 0.06456915 0.01879113 0.10230236 -0.02661119 -0.40469524 -0.18706359 -0.01265698
-0.5937799 -0.28241906 -0.16093415 -0.015932104 -0.26698372 0.21512192 0.21437009 -0.10148017
0.034618728 0.045011513 -0.27010906 0.14028782 0.39407685 0.083259225 -0.27510303 -0.33018056
-0.2574575 -0.40279377 0.12675399 -0.17396687 -0.037103932 -0.34517753 -0.08733772 -0.681185
-0.061609473 -0.048845746 -0.16711402 0.06532799 -0.2529175 -0.56292117 0.3318739 -0.17978288
-0.70594335 -0.29050624 0.3107257 0.028999621 0.029709382 -0.13802096 0.17138581 -0.33067837
-0.032945845 -0.27704227 -0.6788643 0.07097831 0.059959628 -0.49863338 0.067121215 -0.2930381
-0.023741733 -0.73659754 -0.96191233 -0.6953186 -1.0289929 0.04705335 -0.8326779 -0.19607392
0.20764601 -0.42597982 -0.5316592 -0.7281699 -0.28904185 -0.45984733 -0.5631715 -0.70778656
-0.546814 -6.7525194e-05 0.28608853 -0.5198799 -0.257932 -0.059960607 -0.20539063 -0.19851802
0.013704106 0.27581292 -0.59447044 -0.54135627 -0.23138462 0.09044028 -0.4863885 0.2799393
0.20039698 -0.259384 -0.14919102 -0.17358558 -0.19177389 -0.008300517 -0.21225864 -0.1892708
0.25693482 -0.15744936 -0.6938677 -0.32873964 0.28020245 0.1951995 -0.2692268 -0.18138342
0.23353986 -0.13201293 -0.18192177 -0.104665786 0.0109291775 0.04596063 0.364285 -0.16087538
-0.01989053 0.034841716 0.089012936 0.0978672 -0.35532174 0.10709134 0.021822542 -0.23206101
0.11853288 -0.2930968 0.20096882 0.28532273 0.07457671 0.16559643 0.09156795 0.3661265
0.23597135 -0.42255455 -0.26840708 -0.021108286 0.19803977 0.11592467 -0.04946813 -0.13521792
00000000: f88e 0fbe a84b cfbe 03b8 813c f1ba 32be
00000010: 6cf2 9b3e d3bb aebe 1a53 69be d28f 9d3d
00000020: 3b26 33be b3b8 0c3d 9d4b d6bd 6c05 92be
00000030: eba8 a3be fbf4 babd c11b e2bc 9335 47be
00000040: 9e09 a43c e49b ee3d 60fc 51be 46d5 10be
00000050: 154f c6bc 1fd2 843e fc00 03be dfed 023d
00000060: f511 c13c 463c 23be 2099 c0bd 3248 ffbd
00000070: c5a8 84bd 6d9c 783e 9185 65be 8204 613e
00000080: 90b6 193e 34ab c43d 3da9 f3be fb0a 27be
00000090: 8c97 25be d93b 8c3e 2938 013d 0341 35be
000000a0: 6826 8ebd 7110 d8be af8e ba3e abce 75be
000000b0: 3093 febc f3c1 1abf bf09 a9be d9c8 82be
000000c0: fbb1 9abe cb79 273d 0d94 aebe 30a0 d5bd
000000d0: 93dd 8dbd 06de 83be e4de 02bf bdd8 97be
000000e0: 49b7 d1bc 20d9 ebbd b016 89be fc8d 94be
000000f0: c5fc 23bf 6e92 80be d3c7 66bc 98d3 ab3d
00000100: 5eb2 c3be 91ee b5be 5989 723e 8185 1e3e
00000110: d110 c43c 5762 22be 449f b9be d716 a43d
00000120: 1c27 813e 0dd5 a6be 0a19 3cbf 0fb5 dfbe
00000130: 5a1a c2be aaae bcbe c6ba 5dbf 3d4a 26bc
00000140: 22f6 a7be 47f2 aa3e 6dd0 ecbe 346b a03e
00000150: 9b79 9fbd 0751 37be 1b95 8e3e 7cf6 79be
00000160: e4ea 873e 2365 863e d2ea 35be 07c6 4abe
00000170: ada7 69bd 08f2 c23d 2302 d9bc 52c8 213d
00000180: 26fe 3a3e 645c 2ebd f325 abbd 3f79 ec3d
00000190: 352b 203e 302f 77bd 09dc 4bbe 56d9 94be
000001a0: 7a39 a2be db9b a9be 77cd 3ebe 9c80 7d3e
000001b0: d364 87bd 2653 273e b45c 7d3b a342 e8bd
000001c0: b5f1 fa3d f157 c33c 4974 d13d 8508 a8be
000001d0: 878c 9a3d 67a3 1e3d 2881 6bbd 82de a7bd
000001e0: 3f62 29be d53c 843d dbef 993c e683 d13d
000001f0: b6ff d9bc 3734 cfbe 998d 3fbe 395f 4fbc
00000200: f601 18bf 3b99 90be eccb 24be 0b84 82bc
00000210: 17b2 88be ec48 5c3e d583 5b3e d6d4 cfbd
00000220: 5ecc 0d3d fe5d 383d bc4b 8abe 9ca7 0f3e
00000230: 71c4 c93e d083 aa3d 4eda 8cbe 6d0d a9be
00000240: 78d1 83be fc3a cebe cccb 013e 5f24 32be
00000250: 4bfa 17bd 1cbb b0be 1ede b2bd 2462 2ebf
00000260: 375a 7cbd 7a12 48bd f01f 2bbe aeca 853d
00000270: 677e 81be 9a1b 10bf 60eb a93e 0119 38be
00000280: b4b8 34bf 3cbd 94be 7017 9f3e 9d90 ed3c
00000290: 1761 f33c 5e55 0dbe c37f 2f3e ad4e a9be
000002a0: 39f2 06bd 7cd8 8dbe 0dca 2dbf 145d 913d
000002b0: 3a98 753d e04c ffbe d976 893d 1709 96be
000002c0: 067e c2bc a891 3cbf e33f 76bf 6600 32bf
000002d0: 0ab6 83bf 03bb 403d 612a 55bf 9ac7 48be
000002e0: 28a1 543e 071a dabe d11a 08bf 5869 3abf
000002f0: 4bfd 93be 1c71 ebbe 022c 10bf 8031 35bf
00000300: 01fc 0bbf 509c 8db8 327a 923e d916 05bf
00000310: aa0f 84be 4199 75bd ec51 52be 4f48 4bbe
00000320: 3087 603c 5a37 8d3e 372f 18bf 5396 0abf
00000330: 17f0 6cbe c138 b93d ea07 f9be 3454 8f3e
00000340: de34 4d3e fbcd 84be 88c5 18be 6bc0 31be
00000350: 6060 44be e4fe 07bc 545a 59be 34d0 41be
00000360: f68c 833e 683a 21be 50a1 31bf 9050 a8be
00000370: b276 8f3e 61e2 473e 18d8 89be 93bc 39be
00000380: 1325 6f3e 662e 07be b349 3abe 045b d6bd
00000390: 4b10 333c 3741 3c3d 9083 ba3e 84bc 24be
000003a0: 77f1 a2bc 30b6 0e3d 6a4c b63d 996e c83d
000003b0: bbec b5be b452 db3d 30c5 b23c 67a1 6dbe
000003c0: 5ec1 f23d c910 96be c5ca 4d3e d215 923e
000003d0: adbb 983d 1c92 293e fa87 bb3d ef74 bb3e
000003e0: 79a2 713e 1259 d8be a76c 89be 49eb acbc
000003f0: f0ca 4a3e ea69 ed3d 189f 4abd 9176 0abe

sequential_4/dense_18/BiasAdd/ReadVariableOp:0 f4 [28]
-0.05690717 0.012579175 0.063668944 -0.039434023 -0.00033561556 0.017842142 0.043427672 -0.0070159803
-0.047048848 -0.010239341 -0.059481703 -0.01468106 0.019588845 -0.0043961094 -0.033382554 -0.048637897
-0.034301117 -0.039324176 0.031452727 -0.02413426 -0.028343268 0.0013605922 0.03687362 -0.00615644
-0.010843361 -0.027811375 -0.03062136 -0.022221224
00000000: 7e17 69bd e218 4e3c dd64 823d 9285 21bd
00000010: 8ff5 afb9 af29 923c 37e1 313d 4fe6 e5bb
00000020: 4bb6 40bd e9c2 27bc 16a3 73bd d488 70bc
00000030: c978 a03c 3d0d 90bb 25bc 08bd 8838 47bd
00000040: 547f 0cbd 6312 21bd 93d4 003d 36b5 c5bc
00000050: 2430 e8bc e655 b23a cb08 173d f6bb c9bb
00000060: 5aa8 31bc aed4 e3bc a5d9 fabc 4909 b6bc

sequential_4/dense_17/MatMul/ReadVariableOp:0 f4 [128, 64]
0.08411038 0.008347921 0.030137448 -0.14821838 0.04306593 -0.03620533 -0.0060024434 -0.009044168
0.009556612 0.09833534 0.24586934 0.018978907 -0.030234097 -0.15103273 0.1522338 0.15051416
0.01447226 0.14677869 0.109645404 0.16339931 0.031111596 0.21333575 0.1524507 0.11409646
-0.02853742 0.16046342 0.16100465 0.21765003 -0.071409225 0.081364796 0.014822862 -0.13334572
-0.09993403 0.15077893 0.030328915 0.09485993 0.12477737 0.07270896 0.2555864 -0.030062834
0.0057608644 0.124434255 -0.1557477 0.054838665 -0.053591862 0.052128363 -0.06189336 -0.036986142
0.1890807 0.14463998 0.07183969 0.07826691 0.1272412 0.09596283 -0.21037182 -0.10284303
-0.14334977 0.12364513 -0.14015964 0.087478586 0.022025492 -0.0049773133 0.115629 0.048128165
0.03969559 0.011163444 0.33217654 0.21127865 -0.19612531 -0.3161265 0.00050949585 0.28340837
-0.17428333 0.19665098 -0.31143203 -0.12320021 -0.14050019 0.16757107 -0.19522288 -0.24313451
0.17080508 -0.02244524 -0.44600642 -0.053701553 0.13394089 0.05178599 -0.29700172 0.07587382
-0.14657977 -0.1792439 -0.14262289 -0.09092166 0.33222026 0.042459235 0.18823926 0.003911823
-0.12659979 -0.08674901 -0.12919977 -0.16912419 -0.041177996 -0.021852683 -0.15740249 -0.075496554
-0.12100401 0.040245596 -0.010442093 0.07555944 0.15289043 0.041730896 -0.17663693 0.010252999
-0.093775176 0.17544831 -0.12692603 0.17759292 0.09127826 0.06193157 0.24191707 0.33720335
0.074397996 0.070988216 0.0016988433 0.11963805 -0.07895527 0.20971085 0.0075581106 0.30337095
-0.21004023 0.32005283 0.08698705 0.33613735 0.37325227 -0.40106404 -0.13236204 0.4119511
0.14837691 -0.16742747 0.32125437 -0.23269662 -0.32750908 0.010985885 0.3537109 0.015950589
-0.004349936 0.08675398 0.095048316 -0.037828203 0.38972813 -0.09319799 0.33143154 0.2594818
-0.2279447 -0.1306554 -0.066531464 -0.3324148 0.10791705 0.15083747 -0.120441474 0.0055270493
0.2106414 0.08282368 -0.06431723 -0.10748977 0.13556613 -0.6493051 -0.47843993 -0.05795183
-0.3087006 -0.6372744 0.124912456 -0.2781709 -0.12572536 0.06881763 0.008596435 -0.02842957
-0.16976532 -0.13956173 -0.010381937 -0.27235025 0.40603003 -0.07843417 0.19692872 0.34615648
-0.10980632 0.002615648 -0.068243 -0.22385298 0.15080427 0.3602366 0.061942093 -0.38746938
0.042245183 0.18494359 -0.2873856 -0.05513801 0.1190479 0.052696977 -0.111011036 0.117018364
-0.21498989 0.0919528 0.04563651 0.124308236 -0.1912858 0.39435485 0.123014994 -0.020762159
-0.0036247 -0.061076898 0.10791908 0.021660363 -0.27311766 0.112962596 0.03362463 0.12219743
0.003309707 0.077501364 0.11607858 0.10901034 -0.02284322 -0.14277612 -0.08567025 -0.019129694
-0.24492466 0.031243024 0.06846279 0.0722382 0.10381812 -0.042030968 -0.00932425 -0.019772977
-0.2612065 -0.0071054553 0.16793592 -0.019442251 -0.055662647 -0.1309768 0.11163207 0.19392268
0.22251755 0.017180156 0.29951954 -0.04778137 -0.09036573 0.05809913 -0.064067684 0.08696388
0.06416179 -0.05367054 -0.3213143 0.36669126 0.1463101 0.12182956 -0.23889607 0.08837802
00000000: 1042 ac3d b8c5 083c cfe2 f63c 8fc6 17be
00000010: e765 303d 0a4c 14bd 25b0 c4bb fd2d 14bc
00000020: 5693 1c3c 0a64 c93d 2cc5 7b3e a779 9b3c
00000030: 7fad f7bc 53a8 1abe 2de3 1b3e 6220 1a3e
00000040: 0f1d 6d3c 274d 163e c58d e03d 2652 273e
00000050: bfdd fe3c b074 5a3e 091c 1c3e 68ab e93d
00000060: 4fc7 e9bc 8650 243e 67de 243e a6df 5e3e
00000070: 003f 92bd 96a2 a63d 97db 723c c88b 08be
00000080: 36aa ccbd cb65 1a3e 5874 f83c ec45 c23d
00000090: 478b ff3d 6fe8 943d 38dc 823e 5546 f6bc
000000a0: a2c5 bc3b 63d7 fe3d 537c 1fbe 829e 603d
000000b0: 2483 5bbd 8d84 553d e483 7dbd c87e 17bd
000000c0: 5f9e 413e 811c 143e b020 933d 674a a03d
000000d0: 844b 023e 2988 c43d b66b 57be 5e9f d2bd
000000e0: 48ca 12be a839 fd3d 0286 0fbe f927 b33d
000000f0: ce6e b43c bb18 a3bb e6ce ec3d 0a22 453d
00000100: d897 223d e1e6 363c 0b13 aa3e 6e59 583e
00000110: 13d5 48be 55db a1be b08f 053a e71a 913e
00000120: 5477 32be e05e 493e 0574 9fbe 6450 fcbd
00000130: 48df 0fbe c097 2b3e 82e8 47be 41f8 78be
00000140: 87e7 2e3e 14df b7bc f45a e4be 29f6 5bbd
00000150: cd27 093e 8c1d 543d 9c10 98be bc63 9b3d
00000160: 0219 16be b78b 37be bc0b 12be 2335 babd
00000170: c618 aa3e bce9 2d3d cbc1 403e c02e 803b
00000180: 60a3 01be 77a9 b1bd f24c 04be e42e 2dbe
00000190: 42aa 28bd 6604 b3bc 1e2e 21be f09d 9abd
000001a0: f3d0 f7bd 91d8 243d 5015 2bbc e8be 9a3d
000001b0: 4f8f 1c3e 04ee 2a3d 50e0 34be 32fc 273c
000001c0: 330d c0bd b9a8 333e e6f8 01be ebda 353e
000001d0: 19f0 ba3d f5ab 7d3d 1cb9 773e eba5 ac3e
000001e0: fa5d 983d 4562 913d b9ab de3a cb04 f53d
000001f0: 4db3 a1bd 71be 563e 07aa f73b 7053 9b3e
00000200: c914 57be f7dd a33e 4426 b23d 321a ac3e
00000210: ec1a bf3e 4458 cdbe ea89 07be 41eb d23e
00000220: 1ef0 173e 1b72 2bbe 747b a43e 0648 6ebe
00000230: 45af a7be 24fe 333c 9819 b53e cfaa 823c
00000240: e889 8ebb 12ac b13d b1a8 c23d bff1 1abd
00000250: 728a c73e 96de bebd 65b1 a93e ccda 843e
00000260: 566a 69be 87ca 05be a641 88bd 4632 aabe
00000270: 9d03 dd3d 2375 1a3e 05aa f6bd 401c b53b
00000280: 61b2 573e 769f a93d c0b8 83bd 9923 dcbd
00000290: d9d1 0a3e dc38 26bf 14f6 f4be e65e 6dbd
000002a0: 010e 9ebe 6a24 23bf 1ad2 ff3d 6b6c 8ebe
000002b0: 26be 00be 42f0 8c3d 10d8 0c3c 21e5 e8bc
000002c0: f6d6 2dbe 45e9 0ebe 0019 2abc 7e71 8bbe
000002d0: 2be3 cf3e 18a2 a0bd afa7 493e 6c3b b13e
000002e0: 23e2 e0bd 4b6b 2b3b fcc2 8bbd b739 65be
000002f0: 6f6c 1a3e ee70 b83e feb6 7d3d 6362 c6be
00000300: 4909 2d3d da61 3d3e 3524 93be 65d8 61bd
00000310: 63cf f33d c9d8 573d c159 e3bd 53a7 ef3d
00000320: 4f26 5cbe c051 bc3d 59ed 3a3d 5195 fe3d
00000330: 6de0 43be e1e8 c93e 49ef fb3d 6715 aabc
00000340: 608c 6dbb c52b 7abd ae04 dd3d 1371 b13c
00000350: 14d6 8bbe ef58 e73d fbb9 093d a542 fa3d
00000360: abe7 583b 09b9 9e3d 9bba ed3d d040 df3d
00000370: b421 bbbc e733 12be e273 afbd e0b5 9cbc
00000380: 88cd 7abe 5ff1 ff3c 3836 8c3d 9ff1 933d
00000390: 989e d43d aa28 2cbd bdc4 18bc f0fa a1bc
000003a0: dcbc 85be e1d4 e8bb 65f7 2b3e 5b45 9fbc
000003b0: 84fe 63bd c81e 06be 5b9f e43d ab93 463e
000003c0: a4db 633e 66bd 8c3c a05a 993e 66b6 43bd
000003d0: ab11 b9bd 5af9 6d3d eb35 83bd 1e1a b23d
000003e0: 4267 833d a4d5 5bbd 4f83 a4be f5be bb3e
000003f0: 51d2 153e c781 f93d 2ca1 74be 89ff b43d

sequential_4/dense_17/BiasAdd/ReadVariableOp:0 f4 [64]
-0.008385993 -0.002973056 0.06807566 0.037478518 -0.00587321 0.026068889 0.025203291 -0.018726582
0.00026755495 0.023829926 0.008644961 0.01675722 0.055482477 0.044512313 0.0066724285 0.012982194
-0.015058447 0.0258646 0.018296681 0.006521676 0.06936401 0.0673665 0.0042124707 -0.017029164
-0.02305343 -0.015088823 -0.010687093 -0.03042949 0.051739287 0.0 0.1089552 0.0
0.030981744 -0.010536596 0.0 -0.007489515 0.02998706 0.017558191 0.06519663 -0.003079152
-0.01781702 -0.017556038 0.0 0.056439534 0.026684077 -0.006821002 -0.012938524 0.06204942
0.016012497 -0.011844289 0.032870326 0.032436796 0.060957972 -0.01910505 0.022619428 0.11506804
0.0 -0.013298307 0.05278896 0.04219343 -0.01659126 0.0020872466 0.037753515 0.032001436
00000000: 6765 09bc 9ad7 42bb 406b 8b3d 1383 193d
00000010: 0e74 c0bb 6c8e d53c 2277 ce3c 7d68 99bc
00000020: 9e46 8c39 fa36 c33c 98a3 0d3c 7046 893c
00000030: 9841 633d 8b52 363d 63a4 da3b 45b3 543c
00000040: b4b7 76bc ffe1 d33c ece2 953c c9b3 d53b
00000050: b80e 8e3d 73f7 893d c408 8a3b bf80 8bbc
00000060: 8cda bcbc 1c37 77bc eb18 2fbc 4447 f9bc
00000070: 93ec 533d 0000 0000 e723 df3d 0000 0000
00000080: 6dcd fd3c b0a1 2cbc 0000 0000 9b6a f5bb
00000090: 6ca7 f53c 32d6 8f3c d085 853d 99cb 49bb
000000a0: 00f5 91bc aed1 8fbc 0000 0000 242d 673d
000000b0: 9198 da3c b682 dfbb 1afc 53bc 8827 7e3d
000000c0: a42c 833c 8c0e 42bc 09a3 063d 72dc 043d
000000d0: 11af 793d 3282 9cbc 614c b93c cba8 eb3d
000000e0: 0000 0000 24e1 59bc 3d39 583d 05d3 2c3d
000000f0: 65ea 87bc 30ca 083b 6ea3 1a3d f013 033d

sequential_4/dense_16/MatMul/ReadVariableOp:0 f4 [18, 128]
0.08488921 0.11479759 -0.09365043 0.30299443 0.16126493 -0.18742982 -0.02208044 0.3064927
0.2630414 -0.19063845 0.08291364 0.062859595 0.1613418 0.10410807 -0.009828243 0.23139173
0.23104087 0.032705102 0.169503 -0.16749173 0.008902571 -0.110040106 -0.023002708 -0.11365004
0.33261088 0.052030116 -0.13023792 -0.23089787 -0.14045681 0.0026399372 0.20565397 -0.031731684
-0.11616136 0.1713401 -0.20199676 -0.3081112 -0.057372123 0.057498865 0.088778645 -0.25778022
-0.2467514 0.011189389 -0.08102366 0.073311575 0.08256948 -0.033129662 0.30038232 0.17821705
0.09841784 0.03682796 -0.18605113 -0.06268649 -0.122331806 0.09981814 -0.20936388 0.40313926
0.14357327 0.02191449 -0.19599366 0.3164608 -0.20290089 0.054415848 0.09985677 0.20508955
0.25786397 -0.06735542 -0.035890415 0.0127259595 0.20093575 -0.14134084 0.22087774 -0.16903433
0.16349448 0.05517442 0.14986172 0.003589243 0.047689736 0.14528868 0.28223056 -0.11899701
0.22228238 -0.06865965 -0.20085645 0.2759754 0.03457539 0.22274892 0.23936638 0.044225175
0.10194762 0.11754588 0.02793774 0.058506336 -0.24708636 0.20025395 -0.024050806 0.35640198
0.16444388 -0.21525085 0.014122517 0.03940785 0.13353878 -0.019211153 0.30425084 -0.09664529
0.1542123 0.066860184 -0.08336015 -0.25913745 0.18650463 -0.16249624 -0.061773553 0.3387578
-0.13090384 -0.18071987 -0.013796062 -0.010566878 0.14008237 -0.15329221 0.065267585 -0.027469147
0.28803903 -0.14759949 -0.030086309 -0.02653585 -0.089424506 -0.019106343 -0.052132253 0.2124126
0.20604801 -0.0034590284 -0.3046145 0.08034659 0.24396886 0.04327297 0.06945062 0.013924444
0.031707335 -0.17874044 0.10566779 -0.046328943 0.2009719 -0.08180022 -0.14028189 0.05977126
0.05101612 0.15767193 0.015438079 0.10902562 -0.011377146 -0.1756725 -0.21673733 0.3289197
-0.20236145 -0.1632975 0.024940446 0.28268698 0.06750716 -0.32590857 0.095303066 0.054566074
0.011393209 -0.041308217 -0.06727624 0.25243002 -0.17650682 0.05265689 -0.04860073 0.146265
0.16304494 -0.22687384 0.12216457 0.027823888 -0.062813744 0.016671762 -0.026723316 0.16012949
0.12870988 -0.08427313 0.03244078 -0.035718177 -0.014619477 0.10108289 0.27380264 -0.12498248
0.014207233 0.14174372 -0.06544216 0.111862466 -0.20505893 0.15374659 0.00025388636 0.11391516
-0.19154245 0.118528694 -0.12501457 -0.029965388 -0.09029412 0.12840283 0.119214915 -0.009222463
-0.09346152 0.08080485 -0.101617694 0.16780294 -0.5259646 0.006736506 -0.14202671 0.003555731
0.13552986 -0.11034591 0.009817585 -0.04577424 -0.061572876 0.036242828 0.045922134 0.30124295
-0.029302295 -0.010537292 0.060361005 -0.031514145 0.20293137 0.0535175 0.16400535 -0.0725483
0.059755247 0.2327598 0.20833729 0.21430798 -0.1848825 -0.04385115 -0.25255212 -0.097703286
-0.111671284 0.27934125 -0.14967842 -0.17653023 -0.10735443 -0.124204814 -0.045978095 -0.19873555
0.2027768 0.10149864 0.23213568 0.22245196 -0.007786039 -0.121291816 0.09448638 0.24863908
-0.16273645 0.09036026 0.01256451 0.22410941 -0.07392079 0.03517666 0.08648023 0.061834
00000000: 65da ad3d 001b eb3d cccb bfbd 1622 9b3e
00000010: a222 253e 9aed 3fbe 0ae2 b4bc 9cec 9c3e
00000020: 5dad 863e ba36 43be a0ce a93d 88bc 803d
00000030: c936 253e 9d36 d53d a406 21bc f4f1 6c3e
00000040: fa95 6c3e c9f5 053d 3292 2d3e f482 2bbe
00000050: 17dc 113c b55c e1bd 2d70 bcbc 5ac1 e8bd
00000060: f94b aa3e 881d 553d 175d 05be 7e70 6cbe
00000070: e9d3 0fbe cc02 2d3b f496 523e 15f9 01bd
00000080: 02e6 edbd c773 2f3e 3dd8 4ebe c0c0 9dbe
00000090: 08ff 6abd ee83 6b3d 94d1 b53d c5fb 83be
000000a0: 66ac 7cbe b353 373c bcef a5bd 6124 963d
000000b0: 301a a93d f8b2 07bd b6cb 993e 887e 363e
000000c0: 4b8f c93d ead8 163d 3084 3ebe c661 80bd
000000d0: 1989 fabd 746d cc3d 7c63 56be 4568 ce3e
000000e0: df04 133e 0486 b33c 90b2 48be 2607 a23e
000000f0: 40c5 4fbe 27e3 5e3d b581 cc3d ff02 523e
00000100: bf06 843e a3f1 89bd d401 13bd 8b80 503c
00000110: 1ac2 4d3e a7bb 10be c62d 623e 5617 2dbe
00000120: 196b 273e 93fe 613d 5a75 193e 8139 6b3b
00000130: 5056 433d 8ec6 143e 8680 903e b4b4 f3bd
00000140: fe9d 633e 6e9d 8cbd 50ad 4dbe a64c 8d3e
00000150: ed9e 0d3d 4b18 643e 761c 753e 7525 353d
00000160: eac9 d03d e5bb f03d b0dd e43c 57a4 6f3d
00000170: 3504 7dbe 5f0f 4d3e 3206 c5bc 527a b63e
00000180: fa63 283e b86a 5cbe 2162 673c 206a 213d
00000190: 64be 083e b560 9dbc c4c6 9b3e f7ed c5bd
000001a0: d4e9 1d3e feed 883d bab8 aabd aaad 84be
000001b0: 12fb 3e3e 6a65 26be 4406 7dbd aa71 ad3e
000001c0: a80b 06be a10e 39be e108 62bc b320 2dbc
000001d0: c171 0f3e a2f8 1cbe 03ab 853d fa06 e1bc
000001e0: da79 933e 5224 17be 9077 f6bc b661 d9bc
000001f0: 3224 b7bd e884 9cbc a188 55bd b082 593e
00000200: 40fe 523e deb0 62bb 6ff6 9bbe c18c a43d
00000210: f9d2 793e ff3e 313d 203c 8e3d 5a23 643c
00000220: 8ddf 013d bc07 37be 5b68 d83d 6bc3 3dbd
00000230: 94cb 4d3e e086 a7bd 0ea6 0fbe b5d2 743d
00000240: 47f6 503d c074 213e ffef 7c3c d348 df3d
00000250: 3567 3abc 7ee3 33be 64f0 5dbe 2a68 a83e
00000260: d737 4fbe 7637 27be e84f cc3c 59bc 903e
00000270: 3241 8a3d 7ddd a6be 412e c33d ad80 5f3d
00000280: 95aa 3a3c ce32 29bd 20c8 89bd 823e 813e
00000290: 34be 34be c0ae 573d 8f11 47bd 7ec6 153e
000002a0: 41f5 263e 9e51 68be 6b31 fa3d ecee e33c
000002b0: 7ea4 80bd 3893 883c dbea dabc fcf8 233e
000002c0: 86cc 033e 6497 acbd a0e0 043d 394d 12bd
000002d0: 8886 6fbc 8c04 cf3d dc2f 8c3e d1f6 ffbd
000002e0: 74c5 683c 4425 113e 8a06 86bd 2618 e53d
000002f0: f8fa 51be bf6f 1d3e 0d1c 8539 5a4c e93d
00000300: b423 44be 2cbf f23d d203 00be f979 f5bc
00000310: 20ec b8bd 087c 033e f326 f43d d019 17bc
00000320: c168 bfbd 037d a53d f01c d0bd 89d4 2b3e
00000330: 9ea5 06bf e8bd dc3b 736f 11be 4407 693b
00000340: 57c8 0a3e 09fd e1bd f0d9 203c c57d 3bbd
00000350: d733 7cbd 5c73 143d d918 3c3d 843c 9a3e
00000360: 5e0b f0bc 9ba4 2cbc 1a3d 773d fa14 01bd
00000370: 3ecd 4f3e 2b35 5b3d 05f1 273e 3494 94bd
00000380: ebc1 743d 9658 6e3e 5f56 553e 8d73 5b3e
00000390: d751 3dbe 439d 33bd 834e 81be a918 c8bd
000003a0: eab3 e4bd d105 8f3e 4d45 19be 57c4 34be
000003b0: a4dc dbbd 185f febd 8753 3cbd 5581 4bbe
000003c0: b9a4 4f3e 85de cf3d fab4 6d3e 72ca 633e
000003d0: 0722 ffbb d867 f8bd 1382 c13d 3e9b 7e3e
000003e0: 62a4 26be cd0e b93d 60db 4d3c f07c 653e
000003f0: c863 97bd 6715 103d 8c1c b13d a645 7d3d

sequential_4/dense_16/BiasAdd/ReadVariableOp:0 f4 [128]
0.0025949683 0.15923826 0.021710021 0.057370886 0.04692025 0.06783539 -0.007969809 0.03992902
-0.057737473 0.033014476 0.085424535 0.16369583 0.03575652 0.082382746 0.11420143 0.014478399
0.052527755 0.14371839 -0.020800611 0.11071362 -0.009485932 0.0 -0.016174214 0.04712849
0.06170085 0.04329785 0.0 -0.0014429834 0.09824921 0.043026093 0.042631023 0.11030562
0.09949715 -0.028367665 0.0 0.018046394 0.0 0.05014302 -0.001473077 0.04905064
0.0047724987 0.12801634 0.058788717 0.03931315 0.05573056 0.0 0.051711746 0.017539412
0.07527931 0.04946499 0.0 0.048417177 -0.02202391 0.0550666 0.057795774 0.13970692
0.002627892 0.059418213 0.0 0.11283749 -0.019816356 -0.034957442 0.044890832 0.08552385
-0.0075544147 0.0012834403 0.0 -0.03997703 0.041912574 -2.5125119e-06 0.14774929 0.0
0.014830381 0.047681265 0.04624527 0.07849313 0.09417422 0.010969318 0.027817588 0.08941742
0.102569856 0.0 0.0 0.03742874 0.09691023 0.056910113 0.045793846 0.124455035
0.11740723 -0.026501428 0.0734123 0.030236593 0.059479922 0.014725682 -0.010802336 0.098370865
0.044511784 0.07681984 -0.0127937915 0.026650956 -0.0035678674 0.02070141 0.0062561207 0.0
0.0 0.019158056 0.017531756 0.054184537 0.1104377 0.0 -0.0034611183 0.08045659
0.053459436 0.016928134 0.062396616 0.088942215 -0.008109526 -0.008478892 0.051738437 0.087532505
-0.029492022 -0.010414561 0.0 0.010119514 -0.012557388 0.080307506 -0.009529607 0.106202275
00000000: 5810 2a3b 5b0f 233e 37d9 b13c bcfd 6a3d
00000010: 732f 403d 48ed 8a3d cd93 02bc 9d8c 233d
00000020: 217e 6cbd 303a 073d 0ff3 ae3d e19f 273e
00000030: 6e75 123d 49b8 a83d 70e2 e93d cf36 6d3c
00000040: 5827 573d ea2a 133e 0b66 aabc d3bd e23d
00000050: e26a 1bbc 0000 0000 c97f 84bc ce09 413d
00000060: 08ba 7c3d 1659 313d 0000 0000 7d22 bdba
00000070: e236 c93d 213c 303d de9d 2e3d eae7 e13d
00000080: 29c5 cb3d 4e63 e8bc 0000 0000 08d6 933c
00000090: 0000 0000 c462 4d3d 4314 c1ba 53e9 483d
000000a0: 9f62 9c3b b716 033e 70cc 703d d306 213d
000000b0: ba45 643d 0000 0000 b2cf 533d d0ae 8f3c
000000c0: 0a2c 9a3d cd9b 4a3d 0000 0000 1751 463d
000000d0: 7d6b b4bc 848d 613d 43bb 6c3d 550f 0f3e
000000e0: b638 2c3b 8360 733d 0000 0000 5817 e73d
000000f0: e955 a2bc 892f 0fbd 73df 373d 2127 af3d
00000100: 068b f7bb 1c39 a83a 0000 0000 f4be 23bd
00000110: 85ac 2b3d a09c 28b6 974b 173e 0000 0000
00000120: 20fb 723c 6e4d 433d ae6b 3d3d 02c1 a03d
00000130: 6ade c03d a8b8 333c b6e1 e33c 7b20 b73d
00000140: 2510 d23d 0000 0000 0000 0000 e14e 193d
00000150: df78 c63d 941a 693d 5492 3b3d 48e2 fe3d
00000160: 3473 f03d 8619 d9bc 3059 963d bbb2 f73c
00000170: 38a1 733d fd43 713c 48fc 30bc aa76 c93d
00000180: fd51 363d b853 9d3d 0d9d 51bc 1b53 da3c
00000190: e2d2 69bb 0196 a93c 2500 cd3b 0000 0000
000001a0: 0000 0000 5bf1 9c3c c29e 8f3c 9bf0 5d3d
000001b0: 292d e23d 0000 0000 eed3 62bb 6dc6 a43d
000001c0: 48f8 5a3d dfac 8a3c 9893 7f3d 5627 b63d
000001d0: d1dd 04bc 0deb 0abc afeb 533d 3e44 b33d
000001e0: 4199 f1bc d6a1 2abc 0000 0000 51cc 253c
000001f0: 81bd 4dbc 4378 a43d 1222 1cbc 9480 d93d
