DentAIv3.onnx (onnx, 44459 bytes, 5 tensors)

sequential/dense_2/MatMul/ReadVariableOp:0 f4 [64, 1]
000000 82 c8 a9 3e 8b d2 63 3e 75 8b 1e 3e d1 6e 87 bd
       0.33160788 0.22248285 0.15482886 -0.066129334
000010 ac fa 64 3e 4a b7 88 be fe a5 b2 3e 0d 05 55 3e
       0.22361249 -0.26702338 0.34892267 0.20802708
000020 0c 18 3a 3e 30 69 a2 3e 28 8c c8 bd 8d fa a8 3e
       0.18173236 0.31720877 -0.09792358 0.33003655
000030 96 ce 96 bb 62 63 2b bd 2e e4 70 be ad 78 74 be
       -0.0046022637 -0.041842826 -0.23524544 -0.23874159
000040 bd d3 f1 bd cb c3 82 be 87 a7 75 be 1d e4 ec 3d
       -0.11807964 -0.25540003 -0.23989688 0.11566947
000050 d3 4f f0 3d bb 72 81 3d dc 31 55 be eb f1 b5 bd
       0.11733975 0.06320711 -0.20819801 -0.08884033
000060 9a fb 99 3e 75 6e ca 3d b4 58 33 3e 9e 48 a9 3e
       0.3007477 0.09884349 0.17514306 0.33063215
000070 42 af 8d 3e 0d f8 5f 3e 2e 45 01 3e 48 bb 72 3e
       0.27672774 0.21871968 0.12624046 0.23704255
000080 2d c6 89 3e 1d 23 8d be 0e d8 83 3e e9 1c a1 be
       0.2690901 -0.27565852 0.25750774 -0.3146737
000090 24 7e 1d be 0a 7e 25 39 2b 30 01 be ff 35 67 3e
       -0.1538015 0.0001578258 -0.12616031 0.22579192
0000a0 b9 7d 46 bd df cb b0 3c 2d 13 ce 3e 6d 8d 3c 3d
       -0.048459742 0.021581588 0.40249005 0.04603331
0000b0 c2 22 1d 3e ba 03 63 be fc 3b 80 be f5 6b b4 bd
       0.1534529 -0.2216939 -0.25045764 -0.08809654
0000c0 47 4b b2 3e ed 8f 11 3e 4b 7c dd 3e 03 84 2b 3e
       0.34823057 0.1421506 0.4325889 0.16749577
0000d0 a0 8a 8d be c4 eb 94 3e ea 22 7d be c0 4b 39 be
       -0.27644825 0.29086125 -0.2472035 -0.18095303
0000e0 ed 3a 72 3e 62 30 42 3e f9 2e 47 3e db 72 7e be
       0.23655291 0.18963769 0.19451512 -0.24848501
0000f0 bb f7 12 be df 19 3f 3e 60 f9 97 3e db 21 a4 bc
       -0.14352314 0.18662213 0.29682446 -0.020035675

sequential/dense_1/MatMul/ReadVariableOp:0 f4 [128, 64]
000000 77 76 8b bc 77 ed 4e 3e ea c9 41 3e 17 ed c5 bd
       -0.017024262 0.20207773 0.1892468 -0.09664362
000010 19 b2 08 3e 47 a9 be bd aa a6 d7 3c db 0c 5e 3e
       0.13349189 -0.09309631 0.026324589 0.21684591
000020 5c 3d 1f 3d b3 61 b7 3c 2d 59 3c be 00 89 4a 3d
       0.038876876 0.022385454 -0.18393393 0.04944706
000030 e7 51 85 3c 71 99 de bd e2 51 1a be 44 85 bd bd
       0.016274406 -0.108691104 -0.15070298 -0.09253934
000040 18 17 7b bd 35 1d 09 be 6f f7 1c be 38 ea 93 bd
       -0.06130132 -0.13390048 -0.15328763 -0.07222408
000050 db 87 70 3e 73 c6 97 3d 49 ad 2f be 83 16 1e bd
       0.23489325 0.07410898 -0.17155947 -0.038595688
000060 f4 75 fa bd 57 b5 01 be 82 05 92 bd d8 d1 48 3c
       -0.12229529 -0.12666832 -0.07129957 0.012257062
000070 7c e8 68 3d 24 55 46 3e e2 72 a9 bd 51 ae 82 bb
       0.05686234 0.19368416 -0.08273865 -0.0039880653
000080 29 6d f7 3d 2e cf 41 bd 81 4c 0e 3e 84 3c 1f be
       0.120813675 -0.047316723 0.13896371 -0.15550429
000090 40 15 18 3d 11 2c 91 3d a9 f2 c4 3d 60 55 f9 3d
       0.03712964 0.07088483 0.09616596 0.12174487
0000a0 0b 96 16 be 47 0b 6b bc f6 88 2e 3e 91 8c 73 3e
       -0.14705674 -0.01434595 0.17044434 0.2378409
0000b0 70 fb 9b 3b 20 1f 2d be 00 9f 1e be 82 5e 78 bc
       0.0047601983 -0.16906404 -0.15490341 -0.015159251
0000c0 65 e8 41 bc 99 61 8c 3e 5b a6 79 3d 4b 6a b1 3d
       -0.011835192 0.2741821 0.060949665 0.08662852
0000d0 18 9f 35 3d 1e 2c 37 3e 35 98 1f bd af 76 b1 bc
       0.044341177 0.17887923 -0.038963515 -0.021663038
0000e0 2a ee 80 3d 17 39 ab 3d 36 35 6f 3e 3c b3 0c 3e
       0.06295426 0.083604984 0.23360142 0.13740247
0000f0 8e cf fe bc d4 2d 38 3e fe d8 f9 3d 80 d1 48 bb
       -0.03110483 0.17986232 0.12199591 -0.003064245
000100 49 f9 f2 3d bb ae cc 3d 7d dd 12 3e 58 c2 f4 bd
       0.118639536 0.09994265 0.14342304 -0.11951131
000110 ee 71 8d bd ae c3 4e bd a6 2f 9f bd ab d8 65 3e
       -0.06906496 -0.050479583 -0.0777276 0.22445934
000120 05 19 70 3d 57 6a 54 3d ef e3 d9 bd 6f dc 83 3d
       0.05861761 0.051859226 -0.10639178 0.06438529
000130 34 17 bd 3d 36 61 89 3c 50 21 9f 3c a8 f1 8b 3d
       0.09232941 0.016769987 0.019425064 0.06833202
000140 1a 41 24 3e a2 b3 bd 3d 45 03 e4 bd 43 24 f5 3d
       0.1604046 0.09262778 -0.11133436 0.11969807
000150 0b 94 69 3e 65 70 26 3d 30 93 ba 3b d3 7e 1c be
       0.2281038 0.04063453 0.0056938156 -0.15282755
000160 59 ea c2 3c 00 71 9e 3b 00 c2 b6 3c 32 7d 11 bd
       0.023793386 0.004835248 0.022309303 -0.035519786
000170 84 de 7f 3e a8 d5 6c bd 46 fb d4 3c 65 48 18 bd
       0.24987227 -0.057820946 0.025998723 -0.037178416
000180 02 3b 89 3d ae 71 70 3d 91 fa 86 3e ff 76 3d be
       0.06700708 0.058702163 0.26363042 -0.18502425
000190 bb a1 b0 bd d4 00 7a b8 0e 21 29 be 01 c1 f4 3d
       -0.08624598 -5.9605416e-05 -0.16516516 0.11950875
0001a0 f0 03 91 bd 37 d2 60 3e 30 24 86 3e 6f 25 54 3c
       -0.07080829 0.2195519 0.26199484 0.012948378
0001b0 f8 2d 59 3d 58 c8 a6 bc 93 c0 fb 3d 8f ba 55 3e
       0.053022355 -0.020359203 0.1229259 0.20871948
0001c0 b9 48 11 bd a9 6b bd bc c9 67 2f 3e ed 88 2c 3e
       -0.035469744 -0.023122625 0.17129435 0.16849108
0001d0 02 51 f0 bd b3 db 83 3c ab d7 d5 3c 67 ee ea 3d
       -0.11734201 0.016095972 0.026103815 0.11471253
0001e0 ac 72 45 3e d6 05 61 3e 2d 23 d9 3d 5d 6f b2 bd
       0.19282025 0.21974882 0.106024124 -0.08712647
0001f0 07 1a f5 3d 65 42 dd 3d a8 55 d3 3d 12 59 b5 3d
       0.11967855 0.108036794 0.10319072 0.088548794
000200 3b d2 6e 3b 7c 04 b9 bd d8 96 b6 3d d2 5f 22 be
       0.0036441225 -0.090340585 0.0891549 -0.15856865
000210 50 14 9f bb 4b e9 28 be 7f 94 a2 3d 91 19 12 3d
       -0.0048547164 -0.16495244 0.0793848 0.035668913
000220 06 70 fa bb d3 46 07 3e 61 ef 91 3d 95 cf 0b 3d
       -0.0076427488 0.13210611 0.07125736 0.034133513
000230 19 8c c9 bc 45 d1 e9 bd 11 22 19 3e 2b 11 92 bc
       -0.024602937 -0.11416868 0.14954402 -0.017830452
000240 26 8c 84 bd 1d e7 16 be da b7 c7 3c 26 6a 4f bd
       -0.06472044 -0.147366 0.02437966 -0.05063834
000250 3f 10 e7 3c 93 6b ae bd 6e d6 cf 3d 07 dd 21 bd
       0.028205989 -0.08516612 0.10148321 -0.03951743
000260 fa 56 fe bd fe f5 fe 3d ac ab e1 3d 1e dd 0f be
       -0.12418933 0.12449263 0.11019072 -0.14049193
000270 fc de 37 bd 16 98 c3 bc d5 cf 21 3e 5b 94 ce 3c
       -0.04489039 -0.023876231 0.15801938 0.025217226
000280 b2 d3 92 bd 47 7b 0b be 96 9d 1b be 3c 64 3d be
       -0.07169284 -0.13621245 -0.15196833 -0.18495268
000290 40 a7 11 bb a8 cb 41 3c a9 9d b8 3c 55 22 88 bd
       -0.0022224933 0.011828341 0.022536116 -0.06647173
0002a0 28 50 f3 bd 50 24 a0 bd 0f 70 97 bd 38 ea 74 bd
       -0.11880523 -0.07819426 -0.0739442 -0.05979368
0002b0 cf 40 96 bd 28 9a 8d 3d f2 df 27 3d 5c d4 2b be
       -0.0733658 0.069141686 0.040985055 -0.16780227
0002c0 4d 4e 94 3c f0 e3 b3 3d 4f f9 5e 3d 12 25 08 3c
       0.018103743 0.0878371 0.054436978 0.0083096195
0002d0 1f d5 4b bd 4a 3e c6 3d aa f1 d0 bd 54 49 d1 bc
       -0.049763795 0.096798494 -0.10202344 -0.02554766
0002e0 8e 64 48 bd c2 68 a0 bc 59 ca 9d 3d a0 2b e4 3d
       -0.04892402 -0.019581202 0.077046104 0.11141133
0002f0 dd 4a 9f bb bc 4c ca 3b bc a9 d3 3d 45 a3 16 3e
       -0.0048612193 0.006173698 0.10335109 0.1471072
000300 61 44 93 3c 95 fc 94 bd 32 d5 41 3e 04 f1 27 be
       0.017976942 -0.07274739 0.18928984 -0.16400534
000310 7c b7 95 bd c0 c5 19 be 44 d5 2a 3e 01 30 db 3d
       -0.073103875 -0.15016842 0.16682917 0.107025154
000320 3e 18 35 3e 59 3b 20 3e ac 62 08 be 45 9a 03 be
       0.17685029 0.1564764 -0.1331889 -0.12851818
000330 46 2d 2f be 72 68 b4 3c 20 aa 30 be bb 15 b5 3d
       -0.17107114 0.02202246 -0.17252398 0.088420354
000340 05 9a ad 3d c0 01 a2 3d 7f d5 18 3e 45 5d d5 3b
       0.084766425 0.0791049 0.14925192 0.0065113627
000350 d6 dd c5 3d e6 b0 ab 3d 44 8d e2 3d d6 70 9c 3b
       0.096614525 0.0838335 0.110621005 0.0047741933
000360 16 e1 50 3d e0 79 f9 3d 08 c0 84 bd 26 aa 42 3e
       0.05099591 0.12181449 -0.064819396 0.19010219
000370 ef 24 00 3e ac 7a 02 3e c5 fc 14 be e6 61 01 be
       0.12514089 0.12742108 -0.14549549 -0.12635002
000380 81 1b 83 bd 30 aa 77 3d 86 24 68 3c db f3 a9 bd
       -0.0640173 0.060465038 0.014168864 -0.08298465
000390 d9 da 2b 3e d2 5e bd bd af 0c 27 be 23 28 c5 3d
       0.16782703 -0.09246601 -0.16313432 0.09626796
0003a0 91 11 00 bb 92 63 0f 3e 45 c8 98 bd 0b 1f a6 3d
       -0.001954172 0.14002827 -0.074600734 0.0811139
0003b0 c8 9a 48 3e 11 8e 87 bd 1f 68 f4 3d 33 0a 0c 3e
       0.19590294 -0.06618894 0.11933922 0.13675766
0003c0 18 7c 30 3d 0c cc 12 3d 1c 13 ad bd 1c 33 bf bc
       0.043087095 0.035839126 -0.084509104 -0.0233398
0003d0 b7 ed 11 3e fe 49 e4 3c 9b 5e 1c be fb 78 d6 3d
       0.14250837 0.027867313 -0.15270464 0.10472294
0003e0 bc 6c 11 3e ab d1 0d be fe 57 b3 3d 1b 4d 37 be
       0.14201635 -0.13849513 0.087570176 -0.17900507
0003f0 10 5f 2a be 81 94 14 be b3 fa 00 bd b9 35 25 be
       -0.16637826 -0.14509775 -0.031489085 -0.16133775

sequential/dense_1/BiasAdd/ReadVariableOp:0 f4 [64]
000000 09 16 04 3d 83 36 65 3d 82 cc 09 3d 22 ef 8a bc
       0.032247577 0.05596019 0.0336423 -0.01695973
000010 44 f5 34 3d b3 97 9f bc 85 fd 19 3d 47 e6 3e 3d
       0.044179216 -0.019481516 0.03759529 0.04660633
000020 5f 9b 04 3d ed 05 05 3d 5b a4 5c bc fa a4 ff 3c
       0.032374736 0.032476354 -0.01346692 0.031206597
000030 3c 0c 71 bc 0f 68 80 bc c6 ef 50 bc e2 10 12 bc
       -0.01471239 -0.015674619 -0.012752479 -0.008915158
000040 af af ba bc 75 bd 5a bc c5 75 ac bc 36 9c 02 3d
       -0.02278885 -0.013350834 -0.02105225 0.031887256
000050 4d 39 0d 3d 8e b1 05 3d 21 75 5e bc d7 40 ae bc
       0.034478474 0.032640032 -0.01357773 -0.021271152
000060 24 05 3a 3d e8 8a 2c 3c e4 d7 db bb ac 09 4d 3d
       0.04541506 0.010531165 -0.006709086 0.050058052
000070 cc ba 1f 3d 61 c6 00 3d d5 25 00 3d bd 81 01 3d
       0.038996503 0.03143919 0.03128608 0.03161787
000080 2f 8b 22 3d 52 0a 68 bc 8c 7b 2f 3d 36 11 78 bc
       0.039683517 -0.014162617 0.042842433 -0.015140822
000090 00 00 00 00 ee 92 b5 bc 80 a5 83 bc f5 3a 90 3d
       0.0 -0.022164788 -0.016070127 0.07042495
0000a0 e0 5d d4 bc 53 e1 99 3c 78 89 49 3d 49 3d 20 3d
       -0.02592367 0.0187842 0.049203366 0.039120946
0000b0 fa 74 03 3d c2 be a5 bc 94 60 82 bc e1 67 39 bc
       0.03209398 -0.020232562 -0.015915193 -0.011316271
0000c0 8b 50 10 3d f2 dc 61 3d 00 73 40 3d fb 9d 05 3d
       0.03523306 0.05514235 0.046984673 0.032621365
0000d0 ee a8 71 bc 48 cc fd 3c 8a ec 9a bc c4 bb f4 3a
       -0.014749749 0.030981198 -0.018911619 0.0018671681
0000e0 82 03 00 3d 2f c8 05 3d 5b 4e 01 3d 07 e7 81 bc
       0.031253345 0.032661613 0.031568866 -0.015857233
0000f0 77 ba c9 bc 5a 14 53 3d 56 59 3b 3d 7b dd 67 bc
       -0.024625046 0.05153308 0.045739494 -0.014151926

sequential/dense/MatMul/ReadVariableOp:0 f4 [18, 128]
000000 31 a1 20 3d 78 50 c3 3d fa 52 f8 bd 37 22 d6 3d
       0.039216224 0.095368326 -0.121252015 0.10455745
000010 62 23 d4 bd 22 79 f2 bd c5 67 44 be a8 a5 80 bd
       -0.10358311 -0.118395105 -0.1918021 -0.062815964
000020 28 0a 72 3c 3d f6 a5 bd 53 7d a6 3d 04 ab 07 3e
       0.014772929 -0.08103607 0.081293724 0.13248831
000030 70 b5 7d bc ea 3c 65 3d 7a 4d 9f bd 3d 35 05 be
       -0.015485153 0.055966295 -0.07778449 -0.1300859
000040 4a 55 43 3e 21 af f4 bc c2 65 9c 3c 1c 6d 25 3e
       0.19075504 -0.029868664 0.01909149 0.16154903
000050 4c ff 8a bd b9 6d 14 be 0b e0 1e 3e d1 06 2e be
       -0.06786975 -0.14494981 0.15515153 -0.16994788
000060 a1 04 2f bb d7 43 63 3d 69 4e 86 bd d8 04 0e 3c
       -0.002670564 0.05548462 -0.06557924 0.008668147
000070 24 df e2 bd 62 d1 b1 3d 38 e2 d5 bd f9 44 b7 3d
       -0.11077717 0.08682515 -0.104435384 0.08948702
000080 b1 7b 6d 3e 52 89 0e 3e a2 c3 1d 3e 61 97 31 bd
       0.23191716 0.13919571 0.15406659 -0.043357257
000090 b1 c1 30 3e 2a 3f f1 bd 5e 51 a5 3c c0 15 55 3e
       0.17261387 -0.11779626 0.0201804 0.20809078
0000a0 37 a3 62 3e 66 9b 24 be 64 c2 ca bd 8c de e6 bd
       0.22132574 -0.16074905 -0.09900358 -0.11272916
0000b0 de 7d 3f be 0a f5 b4 3d 37 30 e3 3d de 90 35 be
       -0.18700358 0.088358 0.110931806 -0.17731044
0000c0 0e 63 ce bc 67 f7 1a bd 6f e8 12 be 88 8f e7 bd
       -0.025193717 -0.037833598 -0.14346479 -0.11306673
0000d0 e8 c9 d7 3c 56 e0 8a bd e0 3f 8a bd 15 36 2d 3c
       0.026341394 -0.0678107 -0.067504644 0.010571976
0000e0 af 1c 46 be f5 17 16 bd 8c 7e 13 3d fd 62 07 3b
       -0.1934688 -0.03664394 0.036009356 0.0020658367
0000f0 36 f6 99 3d cc 21 1f bd 1f 07 91 bb 98 7d be bc
       0.07517664 -0.03885059 -0.0044258977 -0.023253247
000100 88 05 0e 3e 2c f7 02 3b 58 90 3a 3e b4 5b 15 be
       0.13869298 0.0019983752 0.18219125 -0.14585763
000110 da 02 83 bd 1f 42 a0 3d 0a c2 28 bc 1a 4e d3 3d
       -0.06397028 0.078251116 -0.010300169 0.10317631
000120 63 ea 4b bd 77 53 42 3e 05 d8 c3 3c 57 42 1d 3e
       -0.049784075 0.18977152 0.023906717 0.15357338
000130 4a 37 99 3b 57 0e 8c 3d 31 87 96 bd 2a 92 6c 3e
       0.0046757804 0.068386726 -0.073500045 0.23102632
000140 50 b8 97 3d 55 89 0f 3e 8a 60 77 3d d0 5b d9 3d
       0.07408202 0.14017232 0.0603948 0.10613215
000150 40 99 9c 3d 2b 1a 4c be 0a df bb 3d 65 34 68 3d
       0.076464176 -0.19931857 0.09173401 0.056690592
000160 3b e7 b3 bd 51 36 08 bd 26 b1 43 bc d2 a6 49 3e
       -0.08784338 -0.033254925 -0.011944091 0.19692543
000170 a3 4b 4e 3e ae c7 d1 bd 29 7c 75 bc 7f b6 12 bd
       0.2014604 -0.10243164 -0.014983215 -0.035818573
000180 2c 36 36 be dd fd ef bd df a4 3a 3e 84 1a 4c be
       -0.17794102 -0.117183425 0.18226956 -0.1993199
000190 17 4b 17 3e 17 73 1b 3e 92 cb 85 bd d3 45 76 be
       0.14774738 0.15180622 -0.065329686 -0.24050073
0001a0 86 2e 4f 3d a1 03 a5 bd 07 80 b8 3d 45 7a 2d be
       0.050581478 -0.08057333 0.09008794 -0.16941173
0001b0 85 3a 24 be c8 f4 e8 3d 30 7e 01 be 6b 66 13 bd
       -0.16037948 0.11374813 -0.12645793 -0.035986345
0001c0 2f 58 3b bd 08 d6 1c 3e 0e 74 6f 3e 98 36 1c bd
       -0.045738395 0.15316021 0.23384115 -0.038138002
0001d0 60 d7 30 be 53 1f 2d 3e 58 e0 10 3e f6 50 13 3e
       -0.17269659 0.1690648 0.1414808 0.14386353
0001e0 10 3d 04 be a9 4b 09 3e 48 08 5f bd 74 0f 82 bd
       -0.12913918 0.13407768 -0.054451257 -0.06350604
0001f0 08 36 ff 3d 3a 84 06 bc ab ab 1d be aa 80 13 3e
       0.124614775 -0.008210236 -0.15397517 0.1440455
000200 44 0e 56 3e 6e e2 0f be f6 8d 01 3d dd d2 92 bd
       0.2090388 -0.1405122 0.031629525 -0.07169125
000210 fd 69 c1 3d be 1f 87 bd 76 46 22 3e 08 e2 9c bc
       0.09444044 -0.06597851 0.15847191 -0.019150749
000220 69 4d f2 3d 3c a0 08 be 10 ad 08 be 54 cc af 3d
       0.11831171 -0.13342375 -0.13347268 0.08583894
000230 31 3f 25 be 98 c9 b7 bd 59 0d 30 be 92 eb 54 3e
       -0.16137387 -0.08973998 -0.17192592 0.20792988
000240 5b 36 14 3e b0 94 6c 3e 37 db 23 3e 7e 5b 14 be
       0.1447386 0.23103595 0.16001593 -0.14488026
000250 b9 f1 aa bc 9e 58 4a be bd 65 42 bd 3f 8f 65 be
       -0.020867215 -0.19760367 -0.047460306 -0.22417925
000260 6b 35 d3 bd 19 1c b8 3d a7 a4 33 3e 6c 1b 0f be
       -0.10312923 0.08989734 0.17543279 -0.13975304
000270 f4 05 03 3e 20 a3 17 3e 3a f2 42 bd 69 bd 36 3e
       0.1279524 0.14808321 -0.047594287 0.17845692
000280 0a 08 8a bd fe df 3c bd 7c 4e eb 3d 2f c6 33 be
       -0.067398146 -0.046112053 0.11489579 -0.1755607
000290 96 84 c5 bd a5 90 8c 3d a3 3b b2 3c 21 e6 dd bc
       -0.096444294 0.06863526 0.021756953 -0.027087273
0002a0 f1 53 4c 3b b5 72 14 be 29 ec cf 3d b1 0c ee 3c
       0.0031177963 -0.14496882 0.10152466 0.029058786
0002b0 24 c3 20 bd 91 25 bc 3d 9d 7f 48 3e 32 0e 36 3e
       -0.0392486 0.09186853 0.1957993 0.17778853
0002c0 86 4f 3d 3d 3e d0 db bd 56 43 f8 3d 9f d9 88 bd
       0.046218418 -0.107330784 0.12122218 -0.06682133
0002d0 9e dd 5b 3e f2 72 e0 bd 1a 95 26 bd 53 7b 00 3e
       0.21471259 -0.10959424 -0.040669538 0.12547044
0002e0 2d 56 c0 3d 2d 5a ad bc 2c e0 0f be 4c 81 55 bd
       0.09391437 -0.021161163 -0.14050359 -0.05212526
0002f0 17 22 40 3e 8c ae 50 be 85 3e 2b bd 82 72 2f be
       0.18763004 -0.20379084 -0.04180767 -0.17133525
000300 40 4a 2f 3e 05 76 7b 3d 1d 1a bb bd a4 2f 99 3d
       0.17118168 0.06139185 -0.0913584 0.0747979
000310 a4 a6 fa 3d a9 67 23 be a1 44 48 bd d0 84 34 be
       0.122388154 -0.15957512 -0.048893575 -0.17628789
000320 df 66 cd 3d 42 d1 9e bd e2 7b 2d be 59 67 07 be
       0.10029387 -0.077547565 -0.16941789 -0.13223018
000330 a7 b7 f1 3d de af 11 3e 94 2e cc bd 38 5a 47 bd
       0.11802607 0.14227244 -0.099698216 -0.048670024
000340 37 a4 23 be 73 54 0e 3e 14 12 8f bd 65 ae 00 bc
       -0.15980612 0.13899402 -0.0698587 -0.007854079
000350 85 c0 8f 3d ff 5d b6 3d 0c 2f 61 3c 20 34 d7 3d
       0.07019142 0.08904647 0.013744127 0.10507989
000360 8d d7 2e be 99 8c 4e 3c bb bf 99 bd 7a 74 0a be
       -0.17074414 0.012606763 -0.07507273 -0.13520995
000370 e2 98 4f 3e 1f f3 97 bd a2 3f 9c 3c 72 fa d5 3c
       0.20273164 -0.074194185 0.019073311 0.026120398
000380 da 2e a6 3d 76 d3 68 bd 90 9f 2f 3e dd 10 26 3e
       0.08114405 -0.05684229 0.17150712 0.1621737
000390 11 64 32 bd 30 3f ed bd e4 50 32 be c6 14 bc 3d
       -0.043552462 -0.11584318 -0.1741367 0.0918365
0003a0 04 bb 48 3d e6 ca 14 be 6d 35 9a 3c 71 77 4b be
       0.049006477 -0.14530525 0.018824304 -0.19869782
0003b0 c5 7a 20 3e e4 18 21 3d d9 88 62 3e 99 7b 58 be
       0.15671833 0.03933038 0.22122516 -0.21140899
0003c0 7c 6b b8 3d b4 fa 54 3e 8e c4 80 3d 66 c7 0f 3e
       0.09004876 0.2079876 0.0628749 0.14040908
0003d0 35 34 14 3e fc bf 73 bd 4e 4b 73 bd f1 69 51 3d
       0.1447304 -0.059509262 -0.059397988 0.051126424
0003e0 e6 ac 3e bd 43 45 b2 3d 0b 61 b1 bd f0 00 72 be
       -0.046551608 0.08704617 -0.086610876 -0.2363317
0003f0 55 99 3d be f9 e5 a7 3c e9 89 01 be d4 3d 3c 3e
       -0.18515523 0.020495402 -0.12650265 0.1838296

sequential/dense/BiasAdd/ReadVariableOp:0 f4 [128]
000000 5a 88 f1 3c 6e d8 6f 3d 73 06 a5 3c ef 58 70 3b
       0.029483963 0.058556013 0.020144677 0.0036674102
000010 f9 dc 40 3d 00 00 00 00 39 65 c7 bb a9 a2 be 3c
       0.047085736 0.0 -0.0060850647 0.023270922
000020 fe 27 84 3b 24 99 ac bc ed 01 82 3c 88 75 eb 3c
       0.0040330878 -0.021069117 0.015870059 0.028742567
000030 00 00 00 00 b1 da 4a 3c e2 21 a8 bb bc 03 b1 3c
       0.0 0.012381242 -0.0051309923 0.021608226
000040 5c 10 79 3c f2 a1 4e 3d 12 06 10 3c d7 a0 17 3c
       0.015201654 0.05044741 0.00879051 0.009254656
000050 c9 06 63 3d 00 00 00 00 e7 a6 91 3d 46 91 f5 3c
       0.055426393 0.0 0.07111912 0.029976498
000060 82 fa 89 bc 0a 08 49 3d 72 55 e8 3c 1c e7 1b 3d
       -0.016843084 0.049079932 0.028361056 0.0380622
000070 b3 9e 11 bc 49 6a 16 3d 01 36 74 ba 93 62 8a bc
       -0.0088879345 0.036722455 -0.00093159085 -0.016892707
000080 e9 5c ce 3d 6f ca 57 3d 2f 56 5f 3d 1c c9 3c 3d
       0.10076315 0.05268329 0.05452555 0.04609023
000090 ee 0d ad 3d 66 54 99 3b de 5a 8b bc 12 7f c7 3d
       0.084499225 0.0046792505 -0.017011102 0.097410336
0000a0 15 e9 b4 3c a2 e0 c2 3c e5 54 28 bd 1d 71 aa 3c
       0.022083798 0.023788754 -0.041096587 0.02080589
0000b0 00 00 00 00 84 44 c5 3c 41 72 a2 3d d1 27 54 3c
       0.0 0.024080522 0.079319485 0.012948946
0000c0 07 6f dd 3c 33 85 43 3d a8 e3 a8 3c 55 dd 37 3d
       0.027030481 0.04773445 0.020616367 0.044888813
0000d0 58 14 02 3d 00 00 00 00 1e 17 90 3c 85 4d de 3c
       0.031757683 0.0 0.017589148 0.027136574
0000e0 fa f3 db 3a e8 70 71 bc a0 a0 a8 bb 01 f6 a9 3d
       0.0016781085 -0.014736392 -0.005146101 0.08298875
0000f0 2f 3d 9b 3a b4 0e 22 bc ab 4b c9 bc 00 00 00 00
       0.0011843796 -0.009891201 -0.024572214 0.0
000100 4a c9 a7 3c b9 a0 ac bc a0 3b 5c bc 5e 56 ad bc
       0.020481724 -0.021072732 -0.01344195 -0.021159347
000110 97 14 64 3d 64 cc cb 3c b2 60 ae bc 39 15 a7 bb
       0.0556837 0.024877734 -0.021286342 -0.0050989655
000120 8f aa 8d bc 92 96 3e bc 3a 7d bd bc 4c 92 b8 3d
       -0.017293243 -0.011632578 -0.023131002 0.09012279
000130 bf 05 e6 3c dd c2 07 3d 62 9d 39 bc f6 01 58 3d
       0.028078912 0.03314482 -0.011329027 0.052736245
000140 aa 51 e1 bb 86 ef fe 3c 31 b2 92 3d 01 ae c5 bc
       -0.00687619 0.031120073 0.071628936 -0.024130823
000150 11 f9 04 3d bf 9e 52 bc 50 3a ae 3b 35 bf e2 3c
       0.03246409 -0.012855231 0.00531701 0.027679065
000160 53 29 1f 3d 50 a3 04 3d be 26 1d 3d b1 4b cc 3c
       0.03885777 0.03238231 0.038367026 0.024938436
000170 a2 cd c3 3c 8b ba 08 bb 85 67 e0 3b 2f f9 df bc
       0.023901764 -0.0020863141 0.006848278 -0.0273405
000180 d6 3e c0 3b 79 fc ab bc 1f b9 4f 3d 78 71 e2 bc
       0.0058668656 -0.020994412 0.050713655 -0.027641997
000190 dc f5 39 3d c6 55 18 3d ce 9a 38 3d 4c 42 72 bc
       0.045400485 0.037191175 0.04506951 -0.014786314
0001a0 77 01 ed 3b 00 00 00 00 75 1e 7b 3d 1e 9a fb 3b
       0.0072328406 0.0 0.061308343 0.0076782843
0001b0 39 ed 06 3d 02 cb 06 3d fb 2d a1 3d ba ff 86 3d
       0.032941077 0.032908447 0.07870098 0.06591745
0001c0 0d 1e d5 3c f1 3b f9 3c 2d 60 05 3d ec 1e 8e 3d
       0.026015306 0.03042409 0.032562423 0.06939492
0001d0 03 68 e6 bc 3d ea 01 bb 71 26 61 bb 4b 5b 25 3d
       -0.028125769 -0.0019823455 -0.0034355188 0.040370267
0001e0 14 ab 52 bc cd 2d 6b 3d 00 00 00 00 a4 8f 56 bc
       -0.012858171 0.057416726 0.0 -0.01309577
0001f0 83 0c 8d 3d 01 e0 d5 3c 00 bf e0 bb d7 6e 10 3d
       0.06887152 0.02610779 -0.0068587065 0.035261955
